Evaluating/best_agent.pt (torch, 199138 bytes, 54 tensors)

log_std_parameter f4 [3]
000000 02 e7 9e bb c4 bd da 3e f0 50 aa 3e
       -0.0048493156 0.42722905 0.33264875

net.0.weight f4 [64, 14]
000000 cd ce d8 3e d8 d4 0d 3f e8 1c 2b 3f f5 92 78 bf
       0.42345276 0.554029 0.6684098 -0.9709924
000010 bd 2a 07 3f 60 bb b7 be bf a7 3f c0 3e 4b 65 bf
       0.5279959 -0.35885143 -2.9946134 -0.89567935
000020 ce b8 3e bf af 35 7a be 4d 2d e9 bf f4 61 88 bf
       -0.7450074 -0.24434541 -1.821695 -1.0654893
000030 51 b3 3c 40 cd 0d 8f 3e 27 22 de 3e e3 73 83 3d
       2.9484446 0.27940217 0.4338543 0.06418588
000040 1f d1 a3 3e a5 c7 b0 3e c2 5c 04 40 70 53 80 c0
       0.31995484 0.34527317 2.0681615 -4.0101852
000050 62 69 18 40 7f a6 49 bf 1f bb 96 3f a3 a4 08 c0
       2.381432 -0.7876968 1.1775855 -2.1350486
000060 a8 da c2 bf 98 39 d6 bf 9b 9b 12 40 af 49 aa 3e
       -1.5222979 -1.6736326 2.2907474 0.3325934
000070 f3 d4 ec 3e b5 41 b6 3e f6 92 2d 3f eb 51 27 be
       0.46256217 0.35597005 0.6780237 -0.16339843
000080 cf c8 e8 bf af e1 18 40 3e 80 f4 40 a8 88 85 3e
       -1.8186282 2.3887746 7.6406546 0.26080823
000090 4f b2 b1 bf 85 db 9d be bf 0d ea 3e c1 14 5a be
       -1.388254 -0.30831543 0.45713612 -0.2129698
0000a0 34 18 fd 3f e5 49 4f 3e 62 23 2b 3e 8a 9d 5c 3e
       1.9773011 0.20243032 0.16712716 0.21544471
0000b0 b7 36 d2 3d 9b fa f9 be a7 30 04 c0 43 15 78 40
       0.10264342 -0.4882401 -2.0654695 3.8762977
0000c0 96 d7 17 40 e7 4a 0d 40 85 93 58 be f0 94 03 bf
       2.3725333 2.2076967 -0.21150024 -0.51399136
0000d0 81 e4 2b 3e 22 64 f1 bf 03 25 85 3e 71 bd 50 3c
       0.16786386 -1.8858683 0.260048 0.012740479
0000e0 48 24 95 be c2 34 18 be 14 05 17 bf 56 7a a0 3e
       -0.29129243 -0.14863876 -0.58992124 0.31343335
0000f0 23 66 c1 bf f4 19 14 c0 69 86 d5 be 70 54 bf 3f
       -1.5109295 -2.314084 -0.4170411 1.4947643
000100 ec 58 22 3f 7a df 8b be 5b 64 1f 40 8d 08 5d bf
       0.63416934 -0.27318937 2.4905002 -0.8634117
000110 10 dd a2 3e bd ff e5 3f c8 0f f8 3f 1c cc 8d 3f
       0.31809282 1.796867 1.9379816 1.1077914
000120 c5 aa 5d 3d bd 5a a3 3f 9f f2 27 bf ba 61 b9 3f
       0.054117937 1.2762066 -0.65604585 1.4482949
000130 0f 34 0e 40 d3 fa 54 be 99 4a ad be e6 04 7f 3f
       2.2219274 -0.20798807 -0.33845976 0.9961685
000140 3a 61 d1 bf 78 34 f2 bf c2 a1 64 bf d3 81 e1 bf
       -1.6357796 -1.8922262 -0.8930932 -1.7617744
000150 b5 08 c7 bf 6f 1d 96 3f b0 76 9c 3e cf 4e ae 3e
       -1.5549532 1.1727732 0.305593 0.340445
000160 ab c4 67 3f e9 bf 72 c0 5b 40 c4 bf 14 16 35 bf
       0.90534467 -3.7929633 -1.533214 -0.70736814
000170 3d d9 57 3f 35 3c 3a c0 0b 58 cf be f6 98 67 3f
       0.84315854 -2.9099247 -0.4049686 0.90467775
000180 ea 9b 8f bf c0 cc b1 bf dd 77 2e 3d aa 4f c5 be
       -1.1219456 -1.389061 0.04259478 -0.3853734
000190 86 54 6b bd 8e 53 58 3d 85 34 a6 bf 96 39 f1 c0
       -0.057453655 0.05281406 -1.2984778 -7.5382795
0001a0 37 ae 9a c0 47 79 02 bf 79 7e 77 3f f2 19 7c bf
       -4.8337665 -0.50966305 0.96677357 -0.9847709
0001b0 82 d0 97 3f 2b 35 8e be 47 58 0a be 04 d9 3f 3e
       1.1860507 -0.2777494 -0.13510238 0.18735129
0001c0 ed 9f 94 3e cf a5 0e be 3e da 93 bd f2 9a 08 be
       0.29028264 -0.13930438 -0.07219361 -0.13340357
0001d0 48 77 d2 40 27 a7 4e c1 4c 46 33 c0 13 85 72 3e
       6.5770607 -12.915809 -2.8011656 0.23683576
0001e0 05 c5 d2 3e 26 33 f6 be f1 62 80 bf 3c 6f ae bf
       0.4116594 -0.48085898 -1.0030195 -1.3627696
0001f0 d0 23 d9 3c 95 af 3d 3e c3 6f b4 3e 4e 72 cc bf
       0.026506335 0.1852401 0.35241517 -1.5972383
000200 08 01 51 bf 9a 86 87 bf 21 ac 06 c0 fe 9a 1b bf
       -0.816422 -1.0587952 -2.104256 -0.60783374
000210 52 00 ac 3f 5a 1c 4b bf 2a 00 52 3f 90 2e 20 c0
       1.3437598 -0.79340136 0.820315 -2.502842
000220 32 cd e9 bd 19 ab 0e 40 01 a9 cd be 3e b9 5c c0
       -0.11416091 2.229193 -0.40168002 -3.4488063
000230 c1 bc 99 3e ca b0 87 3f de c1 8c 3e 7a 82 d0 3f
       0.3002682 1.0600827 0.2749166 1.6289818
000240 52 82 28 c0 74 0c 7a bf f0 4b 86 40 da cb 83 bf
       -2.6329541 -0.9767525 4.1967697 -1.0296586
000250 1a 02 21 bf 9c 07 ee be 87 df 11 40 64 0b e4 be
       -0.6289383 -0.4649018 2.279268 -0.4453994
000260 ff d5 33 3b 6a 2c 71 3e a1 ba a1 be dc a8 bf 3e
       0.0027440784 0.23552099 -0.315877 0.37433517
000270 52 68 2a be 55 f3 e8 3e 8c 13 46 c0 40 b5 f0 c0
       -0.16641358 0.45498148 -3.094943 -7.5221252
000280 2c 0b 70 c0 94 64 21 3e 1d 0e 2d 3f a8 c6 dd 3e
       -3.7506819 0.15761024 0.6759966 0.43315625
000290 f0 29 ae bd 98 38 fe 3e d8 da 8e bf ad da 89 be
       -0.08504093 0.49652553 -1.1160536 -0.2692465
0002a0 de 45 a0 3f 99 92 c5 be af 0b fc 3f 46 3e 9c be
       1.2521322 -0.38588408 1.9691066 -0.3051626
0002b0 39 54 9a c0 72 b3 98 3f 47 4e 19 3f f0 a9 20 3f
       -4.822781 1.1929762 0.59885067 0.62759304
0002c0 b6 06 be 3d e6 12 de 3e e3 d2 3b bf 1c 74 06 3e
       0.09278624 0.43373793 -0.7336866 0.1313023
0002d0 8c ec 80 3f 1a 22 52 3f 3b 2b 82 bf a7 c1 18 3f
       1.0072188 0.82083285 -1.0169443 0.5967049
0002e0 34 57 d6 bf d9 d0 70 3e d2 65 49 bf 13 a2 5d bf
       -1.6745362 0.23517169 -0.7867099 -0.8657543
0002f0 c6 32 14 bc 26 9d 32 3f 07 8d b8 bf 50 51 31 3f
       -0.009045308 0.6977104 -1.4418038 0.692647
000300 7b fb 7a 3f d0 52 06 be 32 bc 04 3e 80 f7 c2 3f
       0.9803998 -0.13117528 0.12962416 1.5231781
000310 00 ae a9 3e b2 5d 39 be b9 e2 2a be 1e 05 89 3e
       0.33140564 -0.18102148 -0.1668805 0.26761717
000320 c4 5a 3d be db c2 60 3d 42 09 01 be 7e 87 b6 40
       -0.18491656 0.05487333 -0.12601188 5.7040396
000330 db fc 97 bd dc 13 3c bd ed 6f 83 3d aa 39 7f bf
       -0.07421275 -0.045917377 0.064178325 -0.99697363
000340 47 86 83 be f4 d6 e3 3f 7d f2 91 bd 88 d3 04 3f
       -0.25688383 1.7799973 -0.07126329 0.5188527
000350 45 a5 ac bf 0b 4e a7 bf 39 b7 82 3f da 5f 8d 3f
       -1.3487936 -1.3070692 1.0212165 1.1044877
000360 e3 f1 c7 be 7d 56 ed 3f c4 1c 80 bf 07 5b c9 3e
       -0.39051732 1.8542019 -1.0008779 0.3932726
000370 54 2d 1f 40 48 f6 09 bf a3 87 8b 3f d4 c1 18 3f
       2.4871416 -0.5389142 1.0900768 0.5967076
000380 a6 2d 00 bf 0b 53 2a be e2 e5 e0 be 67 7f 75 bf
       -0.50069654 -0.16633241 -0.43925387 -0.95897526
000390 80 a6 3f c0 52 ec a1 3f 81 57 0f c0 7b 3a 4d 3f
       -2.9945374 1.2650244 -2.2397158 0.8016736
0003a0 12 b7 d6 bf f0 fb d1 bf 24 fb 17 3e 67 08 f0 be
       -1.6774619 -1.640501 0.14841896 -0.4688141
0003b0 c0 bd d2 3f ae 14 be bf 4b c9 ce 3e d6 63 6b 3e
       1.6464157 -1.4850061 0.4038795 0.22987303
0003c0 69 ab 24 3f 00 c2 e7 be d7 59 71 40 ac 1c 2b c1
       0.6432405 -0.45265198 3.7711084 -10.6945
0003d0 7c ca 02 40 8e 0a 8d 3d 5c b4 d4 3d 99 ca 9b 3d
       2.0436087 0.06886779 0.10385963 0.07607002
0003e0 4c 40 c4 bc 81 0d a7 bf 5c b7 bd bf 40 59 0b bf
       -0.02395644 -1.3050996 -1.4821582 -0.5443306
0003f0 b8 4c 12 3f 7a 1f a3 bf d8 db f8 bd 80 c4 77 bf
       0.57148314 -1.2743981 -0.12151307 -0.9678421

net.0.bias f4 [64]
000000 bb 0e 4b bf 4f 53 a1 3f d6 29 eb 3f 3b 8a aa bf
       -0.7931935 1.2603549 1.8372142 -1.3323435
000010 93 b8 19 c0 58 4d f5 bf 85 81 a8 bf 2f 9d 14 40
       -2.4018905 -1.9164228 -1.3164526 2.3220937
000020 94 79 f3 3e 9a c9 d4 bf 4e 1d 11 c0 f4 ce a6 3f
       0.47553694 -1.6624024 -2.2674136 1.3031907
000030 f5 92 33 bf a2 a0 52 c0 c3 dd 18 40 4d 6f 0a c0
       -0.70146114 -3.2910542 2.3885353 -2.1630433
000040 21 a9 d3 be 99 b3 1c bf 83 85 64 3d 51 58 62 c0
       -0.41339973 -0.61211544 0.05579139 -3.5366404
000050 b2 31 ea bf 07 02 f0 3e 49 a9 d5 3f 20 82 a0 bf
       -1.8296416 0.46876547 1.6692287 -1.2539711
000060 c6 2f 55 c0 3c 79 6e bf ae c7 8d be 25 e7 d9 bf
       -3.3310409 -0.9315374 -0.27691406 -1.7023665
000070 fc ff a0 bf 5a 75 1e bf e4 29 06 be 45 c6 3a be
       -1.257812 -0.61897814 -0.13101918 -0.18239696
000080 41 2a 32 c0 bb d0 1e 3f 67 b8 2e bf 40 f7 c3 bf
       -2.783829 0.6203725 -0.68250126 -1.530983
000090 35 df 39 bf 09 71 6a c0 b9 ce c8 3f cb 36 18 c0
       -0.7260621 -3.663149 1.5688087 -2.3783443
0000a0 5e a6 3f bf ff c8 0b bf 45 2f cd be c7 35 77 3f
       -0.7486323 -0.5460357 -0.40075126 0.9656643
0000b0 7b 9d 1e bf 92 a6 9b bf dc a4 5c 3f 12 11 62 3f
       -0.61959046 -1.2160208 0.86189055 0.883073
0000c0 22 c5 b1 bf a3 f8 d4 bf 14 91 28 c0 8e e6 70 3e
       -1.3888285 -1.6638378 -2.6338549 0.2352545
0000d0 51 f3 c5 3f 00 ff 8d bf 74 b5 b5 bf 6c 45 f1 3f
       1.5464879 -1.1093445 -1.4196 1.8849311
0000e0 2c e3 0a bf b2 3b 1f c0 b9 c3 d5 bf 0b ea b3 3e
       -0.54252887 -2.4880185 -1.6700355 0.35139498
0000f0 89 5f 22 c0 99 f1 bd bf b3 58 2f c0 82 ee f8 3f
       -2.537081 -1.4839355 -2.7397888 1.9447787

net.2.weight f4 [64, 64]
000000 27 be 4f c0 9b 23 10 c0 ad 73 0c c0 79 5b b9 3c
       -3.245981 -2.2521732 -2.1945603 0.022626625
000010 33 cb 8e bf 5f 69 48 bf 27 0b be 3f 2e a1 78 bf
       -1.1155761 -0.78285784 1.4847153 -0.9712094
000020 1c 9c 66 c0 27 1d 8d bd 2e 9c 93 be 2a 44 a0 be
       -3.6032782 -0.06890326 -0.28830093 -0.31302005
000030 3a 30 07 c0 e0 a1 9a 3f 92 d8 a2 3c b5 40 31 3e
       -2.1123185 1.208065 0.01987866 0.1730984
000040 8c 90 1f 3e 74 45 0c c0 ab ea 09 c0 00 72 26 bb
       0.15582484 -2.191739 -2.154948 -0.002539754
000050 07 2d f4 bf f8 15 d1 bf d7 ef 63 c0 53 b5 bf bf
       -1.9076241 -1.6334829 -3.5615137 -1.4977211
000060 b1 a3 72 be a5 2a af bf 5d 1b 71 bf ec 96 2b bf
       -0.23695256 -1.3684889 -0.9418238 -0.67027164
000070 85 a3 03 c0 67 19 ae 3b ec 54 44 3f 89 d0 39 bf
       -2.0568554 0.005313087 0.7669208 -0.72583824
000080 ec 48 de 3f dd 27 84 bf 19 6b 28 bf 51 c4 ea bf
       1.7366004 -1.0324665 -0.6578842 -1.8341161
000090 aa 71 7d 3f 9a 29 35 bf be a9 e5 3e 3a 80 1c 3f
       0.9900156 -0.70766604 0.44856066 0.6113316
0000a0 76 85 1c bf 8a 96 1a c0 b4 8b af 3f 78 bc 12 bd
       -0.61141145 -2.4154382 1.3714509 -0.03582427
0000b0 7a 08 0e 3f d7 73 8f bf 02 1c 03 bd 36 bc 52 bf
       0.55481684 -1.1207227 -0.032009132 -0.8231844
0000c0 98 ad c6 bf 96 04 72 be 48 36 ce 3f 24 d8 23 3f
       -1.5521727 -0.23634562 1.6110315 0.6400168
0000d0 56 55 5b c0 b9 7f 01 c0 57 05 2c be 0a 59 fe 3e
       -3.4270835 -2.0234206 -0.16798912 0.49677306
0000e0 1b 88 80 be ae f8 dd 3e 99 28 34 be 50 8f aa bf
       -0.2510384 0.4335379 -0.17593612 -1.3324986
0000f0 18 08 65 bf 25 a5 e5 be dc 93 05 bf 93 84 08 3f
       -0.89465475 -0.44852558 -0.5217874 0.5332729
000100 00 18 8f 3b 29 c8 8b 3c a7 24 6d 3f a5 20 d3 3e
       0.0043668747 0.017063217 0.9263405 0.41235843
000110 d1 b8 c9 3f 98 01 df be 5d 86 2d bf 58 21 93 bf
       1.5759526 -0.43555903 -0.6778315 -1.1494551
000120 7f 82 84 bf 4d 66 8f bf 4a dd 37 bf 70 5e 00 c0
       -1.0352324 -1.1203095 -0.71822035 -2.005764
000130 e0 e0 b0 bf f5 3c be 3f 39 4c 2d 3e 5c fb b1 3f
       -1.3818626 1.4862353 0.16923608 1.3904834
000140 34 d7 57 3e 34 74 a3 3f fb 3b f9 bf 37 7c 44 be
       0.21078187 1.2769837 -1.947143 -0.19188009
000150 73 29 b5 3f 47 c1 e3 bf 3f 11 ae be 16 44 89 bf
       1.4153274 -1.7793359 -0.33997533 -1.0723903
000160 34 de 83 be 99 e1 8d be 53 a6 be 3e 2c c9 fd 3f
       -0.25755465 -0.2771118 0.3723627 1.9827018
000170 ff f2 0f 3f f8 a7 43 3e 5c ef ef bf 04 26 8b 3c
       0.5623016 0.19107044 -1.8744922 0.0169859
000180 1c 6c 83 3e a1 32 82 bf b6 d1 8d bf 0a 4f 23 c0
       0.25668418 -1.0171701 -1.1079624 -2.5516992
000190 0e 52 b5 3f 54 48 18 3f 64 ad 6d bf e1 3c c0 3f
       1.4165666 0.59485364 -0.928427 1.5018579
0001a0 01 03 ac bf 50 21 58 bf bd a8 c4 3f ec b1 2a c0
       -1.3438417 -0.8442583 1.5363995 -2.6671095
0001b0 f8 72 92 bf 41 86 bc 3f 91 32 37 c0 a5 70 07 3f
       -1.1441336 1.4728471 -2.8624613 0.52906257
0001c0 a5 9f b4 bf 4d a1 dd bf f1 26 9f bf 79 af f1 bf
       -1.411122 -1.731485 -1.2433759 -1.8881675
0001d0 aa 3f 00 be 11 b2 6c 3f 47 36 0e bf ad 9f 60 3e
       -0.12524286 0.9245921 -0.5555157 0.21935911
0001e0 3b cb 2e bf be 58 e6 bf 64 55 87 3f 72 5b 44 bf
       -0.68278855 -1.7995832 1.0572934 -0.76702034
0001f0 6a 50 11 be 82 9e a4 3f d8 12 1f 40 1b 50 96 c0
       -0.14190832 1.2860873 2.4855251 -4.6972785
000200 2f 48 57 3f d4 b9 7c bf 7b a1 a5 bf 75 cb c2 bf
       0.8409452 -0.9872105 -1.2939905 -1.521834
000210 be dc 51 3d e6 dd 6e 3f 52 92 12 3f 60 42 d1 bf
       0.051235907 0.9330734 0.5725452 -1.6348381
000220 4d 61 06 c0 88 79 de bf 77 7d 09 c0 76 f1 bd be
       -2.0996888 -1.7380838 -2.1482828 -0.37098283
000230 b6 02 60 bf 9d 46 a5 3f cb e1 6f be 27 aa df 3e
       -0.87504137 1.2912174 -0.23425977 0.43684503
000240 49 a7 4f c0 64 d5 9e be 88 f8 75 c0 05 c6 e4 bf
       -3.2445853 -0.3102218 -3.8432941 -1.7872931
000250 29 0b 23 3f 5e af 9c bf 99 98 2c bf 9f 35 21 bf
       0.63688904 -1.2241018 -0.67420346 -0.62972444
000260 4c 78 3c 3f 87 04 a7 3e a3 35 2b c0 92 12 22 c0
       0.7362106 0.32620642 -2.6751487 -2.5323834
000270 45 67 b8 bf 34 a7 94 3e 1f 33 14 3f a0 78 3b 3f
       -1.4406515 0.29033816 0.57890505 0.73230934
000280 ad ae 92 bf f9 0b 47 be 8e 8b c7 bf a4 65 0f 40
       -1.1459557 -0.19438161 -1.5589464 2.2405787
000290 00 48 5e bf 9b 62 3f 3f 10 17 89 3f 66 3e dd 3f
       -0.86828613 0.74759835 1.0710163 1.7284667
0002a0 15 9f b6 bf e0 d6 0e 3f 55 76 85 3e 00 22 f3 be
       -1.4267298 0.55796623 0.26066843 -0.47486877
0002b0 74 0d 1e bf b4 bd b1 3f 46 bc 27 bf 4b f9 c2 bf
       -0.6173928 1.3886018 -0.6552166 -1.5232328
0002c0 13 6a c8 bf 34 45 ff bf b8 44 c4 3c ac e8 6d bf
       -1.5657371 -1.9942994 0.023958549 -0.92933154
0002d0 84 e3 08 c0 47 10 a9 bf 04 10 96 bf 64 f8 60 c0
       -2.1388865 -1.3208092 -1.1723638 -3.5151606
0002e0 78 99 df be 1e 1a a4 3e 66 62 21 c0 b6 69 c0 be
       -0.43671775 0.32051176 -2.5216308 -0.3758065
0002f0 a6 ac ac bf 80 a6 a9 bf aa bc ce bd 19 2d 47 c0
       -1.3490188 -1.3253937 -0.100945786 -3.1121275
000300 9b b0 3a c0 fa 80 c1 bd 17 33 44 c0 9f ba cc bf
       -2.9170291 -0.094484285 -3.0656183 -1.5994452
000310 38 3b 92 be 25 f5 0c bf 5d cc 36 bf 8b 70 1b bf
       -0.28560805 -0.5506156 -0.71405584 -0.607186
000320 b9 c7 21 c0 99 2f b1 3f 3b bc 72 bf 1d 4c 1c 3e
       -2.527815 1.3842651 -0.94818467 0.1526341
000330 c1 8d 94 bf fa 17 66 3f 6a 97 c6 bf 9b 3f ea bf
       -1.160576 0.89880335 -1.5514958 -1.8300661
000340 21 83 5e bd 5b 4f 7f c0 ea d3 98 bf 20 a2 91 bf
       -0.054324273 -3.9892185 -1.1939671 -1.1377602
000350 9f 86 d9 3f 0d 67 22 bf 90 66 e5 3d dd 0a 92 3e
       1.6994208 -0.63438493 0.11201203 0.28523913
000360 13 52 14 40 c1 e6 97 bf 83 05 56 3e d8 28 2c 3e
       2.3175094 -1.1867296 0.2090054 0.16812456
000370 6c d3 e2 3e df 83 a0 bf ae 48 aa bf e8 42 da be
       0.44301927 -1.2540244 -1.330343 -0.4262917
000380 e3 7c 9f be f9 1d 97 bf 9f a7 04 40 41 1a af bf
       -0.31149969 -1.1806022 2.0727308 -1.3679887
000390 55 f4 55 bf 33 14 a6 3d 05 e1 ce bd ce 8a 31 bf
       -0.83575946 0.081093214 -0.10101513 -0.69352424
0003a0 41 60 43 c0 8d 05 86 bf ec 65 70 c0 38 28 9f bf
       -3.0527499 -1.0470444 -3.7562208 -1.2434149
0003b0 1e 34 5c 3f ce 5f 72 c0 a2 b3 90 bf 08 b3 03 bf
       0.86017025 -3.7870975 -1.130482 -0.51445055
0003c0 87 f6 51 bf 23 65 16 bf 39 8d 5d 3e e2 c8 fd bd
       -0.82016796 -0.5874807 0.21635903 -0.12391831
0003d0 af d8 20 bf 9d 6e a4 be ee fc 88 3f 5f fd d8 bf
       -0.6283063 -0.3211564 1.0702188 -1.6952323
0003e0 61 88 b7 3e 42 4f b9 3e de 75 e8 3e 4e a8 0e c0
       0.35846236 0.3619328 0.45402426 -2.2290225
0003f0 9d b3 df be df 01 ff bd ef 68 de be 6c cd 1e 3f
       -0.43691722 -0.12451529 -0.43439433 0.620322

net.2.bias f4 [64]
000000 35 c1 eb bc 3a db 66 bf bb a0 e1 3e 6d 05 2e c0
       -0.028778652 -0.90178263 0.4406794 -2.7190812
000010 11 2b 14 c0 4c d9 80 bf 67 02 e3 be a6 8e 31 c0
       -2.3151286 -1.0066314 -0.4433777 -2.7743316
000020 f9 59 d1 bf 84 b9 ae bf e0 73 0e bf ab 67 1a c0
       -1.6355582 -1.3650365 -0.5564556 -2.4125774
000030 46 a5 1f c0 10 d1 d5 bf c3 32 91 bf 46 99 3d c0
       -2.4944625 -1.6704426 -1.1343616 -2.96248
000040 2a 98 e5 bf ac ce f4 bf 63 17 8c bf b8 ee 5e c0
       -1.7937062 -1.9125571 -1.0944637 -3.4833202
000050 9b 5b 3a c0 0c a8 87 3e c8 57 06 c0 ad 14 a3 be
       -2.9118412 0.26495397 -2.0991077 -0.31851712
000060 ec 57 2f bf 08 f7 01 c0 d0 d5 5d c0 25 73 9d 3b
       -0.68493533 -2.0307026 -3.466175 0.004804986
000070 6e d8 67 c0 f1 4b 92 3f 1c 54 4f c0 a9 f8 4e bf
       -3.6225848 1.1429425 -3.2395086 -0.80848175
000080 ed 6a 87 be c4 9f 3e bf 53 b6 94 be fd 9b f5 3f
       -0.26448765 -0.74462533 -0.29045352 1.9188229
000090 63 92 9e bd 21 94 b3 bf 25 25 a5 bf 3b 09 4d c0
       -0.07742765 -1.402958 -1.2901961 -3.2036884
0000a0 a2 b0 db 3d c1 1e a4 3e 27 06 67 3d d1 a0 2d 3f
       0.107270494 0.32054713 0.05640235 0.6782351
0000b0 a2 44 4e bf 70 d5 bf bf b3 31 02 bf fe 80 cb bf
       -0.80573475 -1.4987011 -0.50857085 -1.589874
0000c0 53 e6 be bf 70 be 54 be 73 e2 41 c0 8c 32 3d c0
       -1.4914039 -0.20775771 -3.0294464 -2.9562101
0000d0 2b 87 1a c0 7b cb 42 3f 71 6e 26 c0 11 cf 31 c0
       -2.4145 0.76091737 -2.6004908 -2.7782633
0000e0 1c b1 ef 3e 49 64 9f 3e b6 c2 3c c0 e4 78 74 c0
       0.4681481 0.311312 -2.9493842 -3.8198786
0000f0 c5 9e 07 3c b0 7f 98 3d 73 76 2c c0 ce d2 0e bf
       0.0082776 0.074462295 -2.6947296 -0.5579041

net.4.weight f4 [32, 64]
000000 78 56 62 3f 94 35 96 bf d3 42 b1 be 1d c1 bf 3f
       0.8841319 -1.1735101 -0.34621295 1.4980808
000010 8b f7 2e 3f f8 3c 50 be 8d 8a 29 c0 d3 90 54 3f
       0.6834647 -0.20335758 -2.6490815 0.83033484
000020 11 c5 15 3e b1 4d 90 bf 9f e3 ce 3e e5 e9 2d 3f
       0.14625956 -1.127371 0.40408036 0.6793502
000030 61 47 a3 3d ba 02 a1 be ce 97 72 bd 8c 5e 85 be
       0.07972599 -0.31447393 -0.059226803 -0.26048696
000040 9c 8f bc be 87 56 8f 3f 15 1d cc be 62 a2 23 3f
       -0.36828315 1.1198281 -0.39865938 0.6391965
000050 2f 1a 1f 40 e2 55 07 be b8 2f 8f 3e 61 70 78 bf
       2.4859731 -0.13216355 0.27966094 -0.97046477
000060 d5 a3 a4 bf 9b 46 ca 3e ee 3e 90 3f 47 fd b3 bf
       -1.2862498 0.39506993 1.1269205 -1.4061669
000070 47 3f e5 3f 1a 98 f0 be 9b 2b 0f 40 17 05 4e 3e
       1.7909936 -0.46991044 2.2370365 0.20119129
000080 6b e6 4c bf 20 e3 0e 3f 44 8e 5e bf cf 9a eb bf
       -0.8003909 0.55815315 -0.8693583 -1.8406619
000090 d1 af 9d bf 8e 35 84 bf 88 4b 99 bf fa cf 3a 3e
       -1.231928 -1.0328844 -1.1976175 0.182434
0000a0 1a cf 61 be 3f 46 45 c0 6f 3b 38 3e 37 87 fe bc
       -0.22051659 -3.0824125 0.17991422 -0.031070335
0000b0 f8 5e 0b bf 44 66 91 bf 05 9b b8 be 76 82 00 bf
       -0.54441786 -1.1359334 -0.3605577 -0.5019907
0000c0 05 8f 9e be 3b 3a 4d be 3f 5d 69 3f 04 6a 8e 3f
       -0.3096849 -0.20041744 0.9115791 1.1126103
0000d0 c7 23 77 3f c2 e7 0e c0 7d 86 5a 3f 32 6d 95 3f
       0.96538967 -2.2328954 0.8536146 1.1673949
0000e0 57 e2 02 c0 01 3d 55 bf 27 81 62 bf de c5 f5 3c
       -2.0450647 -0.8329621 -0.8847832 0.030001577
0000f0 46 96 98 be e4 b5 5c bf 07 48 28 3f 72 ff 2b 3d
       -0.2980215 -0.86215043 0.65734905 0.04199166
000100 26 b6 5e bf 2a c3 38 bf f3 25 ab be 94 01 ae 3e
       -0.86996686 -0.72172797 -0.3342739 0.3398558
000110 9d d4 fa be 4e 22 b8 bf cf 9a 4a 3f df 6e 03 3f
       -0.48990336 -1.4385469 0.7914247 0.5134105
000120 f8 44 03 bf 3e 95 cd be fe e6 ee 3e b5 88 82 bf
       -0.5127711 -0.40152925 0.46660608 -1.019797
000130 c8 f3 10 3e 04 4b 17 c0 41 f7 d4 3d 72 c1 99 bf
       0.14155495 -2.3639536 0.103987224 -1.201216
000140 b5 b2 a7 3e a6 01 9f bf 41 f1 3d bc 3e b8 30 be
       0.3275353 -1.2422378 -0.011593164 -0.17257783
000150 5f 10 2c 3f 2b fb ee bd 48 23 2d bf d4 ad a8 3e
       0.6721248 -0.11669 -0.6763196 0.3294512
000160 d0 6b ea bf c3 8f 61 bf 0f a3 86 3e 76 3b cc 3e
       -1.8314152 -0.8810999 0.2629628 0.39889115
000170 81 e0 54 3f 77 cd ac bf a7 a8 34 3f 52 4a 55 be
       0.83155066 -1.3500203 0.70569843 -0.20829132
000180 39 bb b9 bf b7 c7 a3 3e fd e7 78 bf e2 4e eb 3d
       -1.4510261 0.31988308 -0.97228986 0.11489655
000190 76 0e 21 bf 34 a9 48 3f a7 6e 80 3f d0 6b 07 3f
       -0.6291269 0.78383183 1.0033768 0.52898884
0001a0 f1 55 73 bf 88 74 82 be 3d 09 70 bf e1 d0 44 3f
       -0.9505301 -0.2547953 -0.93764096 0.76881224
0001b0 62 6e 06 bd 69 c0 2d be f4 f3 f6 be 99 7b 64 bf
       -0.032820113 -0.1696793 -0.48232996 -0.89251095
0001c0 37 24 4c bf f2 16 39 be 88 ce 1e 3f e7 83 08 bf
       -0.7974276 -0.18075159 0.6203389 -0.53326267
0001d0 e5 d4 b2 3f b9 7f 01 c0 32 16 53 3e 29 69 be be
       1.397122 -2.0234206 0.20613936 -0.37189606
0001e0 ac 2d 1e 3d d7 c1 dd 3e 5c 0a 0e be 95 07 96 3f
       0.038617775 0.4331195 -0.1387114 1.1721064
0001f0 cc 34 15 3c 00 6e c4 be 40 93 76 3e a7 88 88 bf
       0.009106826 -0.38365173 0.24079609 -1.0666703
000200 11 de a8 bf 8e d4 fa 3f dc 90 d2 bf b9 1f 11 bd
       -1.3192769 1.9596117 -1.6450458 -0.035430644
000210 7a 0c 66 bf 7d 25 1e c0 0e f4 01 bf d5 10 1b 3e
       -0.8986279 -2.471038 -0.5076302 0.1514314
000220 5f 52 b4 be 91 b5 00 c0 5c c0 34 bf 3e aa 4a 3f
       -0.35219094 -2.011082 -0.7060602 0.7916602
000230 1d e3 bd bf 0d 1e 5a be 60 9b 20 bf e7 15 95 3f
       -1.4834934 -0.21300526 -0.62737083 1.1647309
000240 85 8f 4e bf 88 57 9d 3e 53 d4 13 3f cd 34 2c 3f
       -0.80687743 0.30730844 0.57745856 0.6726807
000250 32 00 a6 3f 63 ab 2c bf bd f2 56 3e ad c9 67 be
       1.296881 -0.67449015 0.20991035 -0.22635527
000260 18 09 06 bf 63 b6 93 bf 08 27 19 3f bf 0f 19 bf
       -0.52357626 -1.1540035 0.5982518 -0.5978965
000270 d8 2e ae 3f d5 95 f7 bf 23 15 72 3f 4f f8 f7 bf
       1.3608046 -1.93426 0.945635 -1.9372653
000280 62 d4 b5 bf 4b 65 bd be 8f b4 cc bc 87 e6 4d c0
       -1.4205439 -0.36991343 -0.02498844 -3.2171953
000290 59 e8 31 c0 2a 82 92 3e 90 14 ef bf 03 81 60 3d
       -2.7798064 0.28614932 -1.867815 0.054810535
0002a0 dd dd b8 3f 40 ee ed be 8b b8 8d bf db f6 2c c0
       1.4442707 -0.46470833 -1.1071943 -2.7025669
0002b0 c9 75 3c bd 7e e7 d4 be e5 d8 87 3e 94 5f 09 3f
       -0.046010766 -0.41582865 0.26532665 0.53661466
0002c0 9a 00 0a bf 3a 0d 23 bf 87 98 9c be 49 71 52 be
       -0.5390717 -0.6369206 -0.3058512 -0.20551027
0002d0 fa e8 15 3e eb bc 57 bd 9c 54 06 3f e5 c9 1f bf
       0.14639655 -0.0526704 0.52472854 -0.6241744
0002e0 e2 95 07 bf 63 c1 0d c0 51 16 4a bf 96 93 01 bf
       -0.5296308 -2.2149284 -0.789403 -0.50615823
0002f0 fa 5c 06 3f 6f 7d a4 bf b2 5a fa be 4a e0 ed be
       0.5248562 -1.2850779 -0.4889732 -0.4646018
000300 a1 ed b3 be f8 78 35 3e 3b 1c 12 bf 73 19 9e 3f
       -0.35142234 0.17721927 -0.57074326 1.2351516
000310 71 59 27 3f 3a af cb be 5b 4e 93 bf bc ec 09 40
       0.6537085 -0.39782125 -1.1508287 2.1550741
000320 06 90 8a bf 72 9c a8 bf ed 02 6a 3f 26 aa e7 3e
       -1.0825202 -1.3172743 0.91410714 0.45247
000330 80 3a f0 3e 3c 8d 9d be dd d5 a7 3f bf a3 7d 3f
       0.46919632 -0.30771816 1.3112141 0.9907798
000340 07 81 a0 3e d7 ec 2e bd 46 d1 8e be 5d 42 64 3f
       0.3134844 -0.042706337 -0.27894038 0.8916376
000350 47 2f 8f 3f af d9 af bf a1 f2 91 3f d6 17 d2 bf
       1.1186303 -1.3738307 1.140217 -1.6413524
000360 f7 e7 e1 bf 70 48 9f 3e 39 68 8b 3f ee 71 e9 bf
       -1.7648915 0.31109953 1.0891181 -1.8237894
000370 10 b3 fe 3f 8c eb 70 bf 4c 3b 84 3f 78 95 22 3e
       1.9898396 -0.94109416 1.0330596 0.1587733
000380 03 36 ee 3e 67 8d 22 3f 72 4e 04 bf 9a 5c af bf
       0.46525583 0.6349701 -0.516822 -1.3700135
000390 d4 26 25 bf 4e 18 e8 bf e6 ec 7a 3e 27 1d a4 3f
       -0.6451237 -1.8132417 0.24504432 1.2821397
0003a0 1b 45 1d c0 a6 91 d0 bf da da 53 bf 02 0d 8f be
       -2.4573429 -1.6294448 -0.82755816 -0.27939612
0003b0 1e 44 3f bf 30 ef 0d c0 3b f4 d0 bf c4 eb 02 bf
       -0.74713314 -2.2177238 -1.6324533 -0.51141
0003c0 49 28 fe be 12 10 84 3e 33 dc d5 3e 29 fe be 3e
       -0.4964011 0.2579351 0.4176956 0.37303284
0003d0 5e f8 bb be 5e b1 38 c0 79 9a ab 3f 18 29 dd 3e
       -0.36712927 -2.8858256 1.3406516 0.43195415
0003e0 68 78 24 be f4 41 2f bf 38 99 72 3f 60 c9 ee be
       -0.16061556 -0.6846001 0.94765043 -0.46638012
0003f0 d3 3d e7 bf e9 81 4f bf b1 03 76 bf f2 43 70 3f
       -1.8065742 -0.810576 -0.9609938 0.93853676

net.4.bias f4 [32]
000000 f0 ed 3d c0 34 b9 58 bf 34 37 cb bf ac c6 22 c0
       -2.9676476 -0.846576 -1.5876222 -2.543376
000010 62 16 2d c0 69 20 ae bf 59 fc 11 c0 a9 02 cb bf
       -2.7044911 -1.3603641 -2.281027 -1.5860187
000020 36 94 aa bf cf 68 09 bf 55 cf 14 c0 38 f7 0f c0
       -1.332648 -0.5367555 -2.3251545 -2.249464
000030 0a f4 3b c0 63 d8 05 c0 b9 d0 70 bf 4d 24 da bf
       -2.93677 -2.0913322 -0.94068485 -1.7042328
000040 b8 b2 2a c0 bb eb a0 bf 28 1b 1b be d8 37 e7 bf
       -2.6671581 -1.2571939 -0.15147078 -1.8063917
000050 63 59 ca bf a0 8f c1 bf 4b de 10 c0 70 50 f2 bf
       -1.5808529 -1.5121956 -2.2635677 -1.8930798
000060 a5 fe 25 c0 71 d0 0e c0 d1 11 f3 bf 09 e5 a2 bf
       -2.5936673 -2.2314723 -1.8989812 -1.2726146
000070 0a b1 36 c0 2d f8 e6 bf 72 51 d8 bf 25 2d 9a bf
       -2.8545556 -1.8044487 -1.6899855 -1.2045027

mean_layer.weight f4 [3, 32]
000000 f7 f3 10 be 8d 61 34 bd 61 b5 c3 3a 6b 99 28 be
       -0.14155565 -0.044038344 0.0014931374 -0.16464774
000010 d9 cb 8b 3d 28 71 92 bd da bd e9 bd 64 e8 db be
       0.0682599 -0.07150489 -0.114131644 -0.42950737
000020 71 86 28 bd fc 27 b7 3e 4a ff 8c 3e 22 49 d1 3d
       -0.04114384 0.35772693 0.2753852 0.10219027
000030 37 f0 51 bb 15 b6 df 3d 38 2e 60 bc 2d 50 be bb
       -0.0032034048 0.10923401 -0.013682894 -0.0058078975
000040 e3 d5 bd 3d e3 dc a0 bc 35 66 97 bd 2c fc 0b 3e
       0.09269311 -0.019636577 -0.07392541 0.13670415
000050 e4 eb 92 3c da 79 2b bb f8 b1 97 3d c7 f5 49 be
       0.017934747 -0.0026165158 0.07406992 -0.19722663
000060 9a 51 75 3e a7 8b ac be c1 0a c2 bd f4 d5 85 3d
       0.2395691 -0.33700296 -0.094747074 0.06534949
000070 00 55 7b bd 78 47 5d 3e 2d dd 8b bd 54 c0 1e 3e
       -0.06136036 0.21609294 -0.06829295 0.15503055
000080 25 cb 44 3e cc f2 c0 3d ef be 89 be 90 7e 5d be
       0.19218118 0.0942131 -0.26903483 -0.21630311
000090 aa 42 0c be 80 75 b0 bd b4 58 4b be 07 4d 53 be
       -0.13697305 -0.08616161 -0.19858056 -0.20634852
0000a0 a2 a0 9a 3d 94 4a bb 3d ec 25 c8 3d c2 48 65 3a
       0.075501695 0.09145084 0.09772858 0.00087464985
0000b0 3c d1 45 bd 05 a3 60 3d 0a 1d 8a bd ec ba aa be
       -0.048295245 0.054842968 -0.0674382 -0.33345735
0000c0 d1 00 61 be 50 7f 72 3d 72 b9 bf bd 0a 38 09 be
       -0.21972968 0.059203446 -0.09361543 -0.13400283
0000d0 e8 7f 4f be 08 81 17 3e a9 95 da 3d 71 28 05 bd
       -0.20263636 0.14795315 0.10673077 -0.03250927
0000e0 53 dc c7 bd d8 b7 84 bc 6e 56 a4 bb af 44 c9 bd
       -0.097588204 -0.016200945 -0.005015186 -0.098275535
0000f0 b2 83 07 3e 95 53 05 3f eb c9 c7 3d 66 24 22 3e
       0.13233832 0.5208066 0.0975531 0.15834197
000100 22 8a 10 be 0f f2 28 bd 76 78 3b be 81 13 e4 3c
       -0.14115193 -0.04124647 -0.18307671 0.027841331
000110 3f 04 39 3e 31 7d fa 3d e9 39 7f 3e e4 dd b1 3e
       0.18068026 0.122309096 0.24924435 0.34739602
000120 25 0c b3 3d eb b4 25 be b2 78 cf 3c a7 bc a8 bd
       0.08742551 -0.16182296 0.025326107 -0.082391076
000130 b0 7e df bd ac 7e e6 3a 6a 04 e1 bc 27 55 e1 3d
       -0.109128356 0.0017585359 -0.027467925 0.1100257
000140 03 36 23 3c 28 f2 3f bd 86 a9 d4 3c d2 b3 fc 3b
       0.009961608 -0.046861798 0.025959741 0.007711866
000150 c6 ef 12 be 4d 12 03 3e 02 47 91 3d 06 92 e2 bd
       -0.14349279 0.1279995 0.07093622 -0.11063008
000160 11 a4 19 be 57 14 4b bd be b9 5d 3e d2 83 c6 3d
       -0.15003993 -0.049579944 0.21652886 0.096931115
000170 84 67 fa 3d 7a e4 20 3e a3 8c 99 3c 93 c5 1e be
       0.12226775 0.15712157 0.018743819 -0.15505056

mean_layer.bias f4 [3]
000000 4f 35 e0 bd 0d 6d 90 3e 15 72 bb bd
       -0.10947668 0.282082 -0.09152619

net.0.weight f4 [64, 17]
000000 78 02 c7 3d 59 fb 14 3f f3 6a 66 3e 8f 23 06 3e
       0.09717268 0.58196026 0.22501735 0.13099502
000010 69 c6 67 c0 bb 2c 9a bd fd 5e e1 be b8 e8 dd 3c
       -3.621485 -0.07528063 -0.44017783 0.027088508
000020 75 75 3c 39 f8 b7 2b 3b a9 ec 77 3c a7 86 fc bc
       0.00017972833 0.0026202183 0.015132108 -0.030825926
000030 18 83 e0 3a 10 4a 8b bc d1 de 43 bf de 23 16 3f
       0.0017128913 -0.01700309 -0.76511866 0.5864848
000040 9b aa ef 3e 98 fd 8a be 05 13 e9 bc 99 3d 72 bd
       0.4680985 -0.27146602 -0.028451452 -0.059140775
000050 18 6b 3a be 2a 35 32 40 4b 3f 43 c0 48 a4 d1 bf
       -0.18204916 2.7844949 -3.050738 -1.637826
000060 35 cf 0e 3f e3 1c 97 3b 49 2e 64 bc 21 bc 55 3b
       0.5578492 0.004611598 -0.013927051 0.0032613354
000070 d2 12 01 bd 80 e1 c3 3c f6 d1 95 3b 45 25 f9 be
       -0.03151209 0.023911238 0.0045721484 -0.48661247
000080 0e be c4 3e bd c3 d4 be 17 bb 07 3f 71 dd 38 be
       0.3842625 -0.41555586 0.5301985 -0.18053223
000090 3f 07 3f be 3d 50 fb bd b5 f9 5c 3e e6 c7 aa 3f
       -0.18655108 -0.122711636 0.2157963 1.3342254
0000a0 d8 c3 14 be c7 b9 23 3e 45 47 32 bd 40 e5 75 3d
       -0.14527833 0.15988837 -0.043525 0.060033083
0000b0 9a 40 1c bb f3 87 aa bc 90 d7 ec 3c b8 7f 0c 3d
       -0.0023842216 -0.020816779 0.028911382 0.03430149
0000c0 f8 06 6e 3d b8 c4 96 be fe b3 35 bf 44 34 be 3e
       0.058112115 -0.2944696 -0.7097777 0.3714925
0000d0 27 f2 dd 3e 5c cc 0e 3d 11 52 81 3d af ff 28 c0
       0.4334881 0.03486286 0.06314481 -2.6406057
0000e0 0d fd ca 3f 41 76 1f 40 e4 7f 63 bc 7a f4 08 bc
       1.5858475 2.4915926 -0.013885472 -0.008359069
0000f0 84 f2 92 3b be ff 2d 3c 7a d3 a3 bc 27 e6 b4 3b
       0.0044844765 0.010620056 -0.0199983 0.0055206004
000100 75 76 2e 3c 3a 81 a6 be 68 d4 d6 3e 33 f9 28 3e
       0.01064836 -0.32520467 0.41958928 0.16501312
000110 b3 c0 b2 3d 1c b6 53 be 54 24 80 3e 8d 2b 37 bd
       0.08728161 -0.20674938 0.25027716 -0.044719268
000120 b1 eb 9f bf af 8f 41 40 a6 01 ee bf 7d eb b8 3e
       -1.2493802 3.0243948 -1.8594253 0.36117163
000130 34 69 67 3c aa b2 f3 3c f5 17 ee bb 09 23 0a 3c
       0.0141242035 0.02974828 -0.0072660395 0.008431205
000140 52 9f 40 3d a1 3c 1d 3d b1 31 02 c0 af 2b 26 40
       0.04702694 0.0383879 -2.034283 2.5964162
000150 a2 e6 16 bf 5c 96 af 3e 37 11 04 3d 3c 79 a9 bd
       -0.5894567 0.34294403 0.03224298 -0.08275077
000160 56 e8 c3 3d f6 20 4f bf 76 83 eb be fe c1 53 be
       0.09565799 -0.8090967 -0.45998734 -0.20679471
000170 75 bc 16 40 33 a3 ea 3c cb a9 2b bc 06 25 0d 3c
       2.3552525 0.028642273 -0.0104774935 0.008614784
000180 a9 3e cd 3c 0a b7 9b 38 ff bb 05 bc ab c8 06 40
       0.025054293 7.4250696e-05 -0.008162498 2.1059978
000190 63 fc 8a bf 26 da 4a 3f 24 75 28 bc 42 1a c5 bd
       -1.0858272 0.7923912 -0.010281835 -0.09624149
0001a0 98 9c b1 3e 60 92 8a be 54 e7 3a 40 26 37 11 40
       0.34689784 -0.270648 2.9203691 2.268991
0001b0 9c 21 16 40 d1 7d 5f 3f a0 9b db 3c 93 bb b4 bb
       2.3458014 0.87301356 0.026807606 -0.0055155247
0001c0 00 9e 45 bc dc 73 c0 3d da c8 b5 3d a5 b7 63 3d
       -0.012061596 0.093970984 0.088762 0.05559506
0001d0 67 5a a7 3f 11 00 ba 3f 3c d0 2e 3f a2 18 cb be
       1.3074464 1.453127 0.6828649 -0.3966723
0001e0 f2 e2 83 be 28 99 35 be ec d6 73 3e e6 29 d5 3e
       -0.25759083 -0.17734206 0.23812455 0.41633528
0001f0 f8 93 64 be af d5 17 3f 9f 30 6f be 9f 72 7c bd
       -0.2232207 0.5931043 -0.23358391 -0.06163275
000200 d5 b5 39 bc dd c8 fe 39 d3 f8 40 bc d5 2f 0b bc
       -0.011334856 0.0004859631 -0.011778074 -0.008495291
000210 d2 54 e8 3c 4c 91 2a 3f b4 16 56 be b6 6f a9 bd
       0.028360758 0.66627955 -0.20907098 -0.0827326
000220 bd c7 be 3d 2a d8 fe 3e cf 9f aa 3c 71 3b a2 3e
       0.09315441 0.49774295 0.020828156 0.31685975
000230 bb a9 6b 3f 5c f9 d9 3d a6 fa 8d be 6a cf b6 3d
       0.92055863 0.10643265 -0.27730292 0.0892628
000240 b8 d7 2c bc 7f a1 e2 bc 79 f3 46 3d 7c 5e a7 bc
       -0.010549478 -0.027664898 0.048572037 -0.020430796
000250 65 9a be 3b 47 9e eb 3c 00 4d cb bf 19 78 35 bf
       0.005816745 0.028761996 -1.5882874 -0.7088638
000260 42 2b 33 3e d2 72 1f 3e be 02 b8 3e db 01 9a 3b
       0.1749697 0.15571144 0.35939592 0.004699928
000270 ea cf 7a 3e ef ec 9e bf d7 30 9e 3b 70 f6 29 bf
       0.24493375 -1.2416056 0.0048275995 -0.6639166
000280 b5 c5 fc bb f5 f6 f0 ba c5 1d 51 bb 4a bc 0b bd
       -0.007713998 -0.0018384146 -0.0031908613 -0.034115113
000290 5e 62 d6 3c 23 29 57 bc 37 45 7c bd 02 80 a5 3f
       0.026169952 -0.013132366 -0.061589446 1.292969
0002a0 cb f6 04 bf 29 11 14 be b6 e8 a1 be 86 69 02 bf
       -0.51939076 -0.14459671 -0.31622857 -0.50942266
0002b0 2a b5 76 3d 29 86 89 be 41 79 0b c0 05 4c a1 3f
       0.060231365 -0.2686017 -2.1792758 1.2601324
0002c0 7c 56 fa 3f ee 92 98 3f 88 a7 2e bd 77 7e df 3c
       1.9557643 1.1919839 -0.04264024 0.027281983
0002d0 57 02 b5 3c 71 f5 36 bd a0 66 28 3d ed 24 0f 3d
       0.022095842 -0.044667665 0.041113496 0.034947325
0002e0 2f cb 17 c0 03 be 88 3f dc d0 c8 3f c6 f4 fc 3c
       -2.3717763 1.0682987 1.5688739 0.030878436
0002f0 28 d1 44 bc 2a 5d 2e 3d 5a 08 af 3d 1e 93 84 be
       -0.012012757 0.042569317 0.08546515 -0.25893492
000300 73 8a 23 3e fc 05 c9 bf fc 48 94 bc 74 f0 20 bd
       0.15970783 -1.5704951 -0.018101208 -0.039291814
000310 f3 43 7f 3c d7 08 1c bd 71 41 fe bc 36 7d 95 bd
       0.015580165 -0.038094368 -0.031037064 -0.07299273
000320 56 a7 a7 bc 11 f1 a9 be 96 63 f3 be 17 b8 81 bf
       -0.020465534 -0.33191732 -0.47536916 -1.0134305
000330 21 86 0f be ea a6 bc 3b 89 15 82 3e af b5 69 be
       -0.1401601 0.0057572024 0.25407055 -0.22823213
000340 ec 4c 89 bf 27 de 93 3e c2 83 32 bf e8 5c 3c 40
       -1.07266 0.28880426 -0.69732296 2.9431705
000350 a2 b5 b3 bc 51 e2 7d bc dd 11 ae 3c 30 e3 3b bc
       -0.021937195 -0.015495853 0.021248752 -0.01146774
000360 0c da 83 bc 73 e9 7b 3c a7 54 5a bf eb 44 87 bf
       -0.016095184 0.015375483 -0.8528542 -1.0567907
000370 ab 61 0b 40 f1 4b 22 bd f5 05 6e 3d cf 43 69 3e
       2.1778362 -0.039623205 0.05811115 0.22779773
000380 ee 30 66 3d 6a c6 d1 bf 62 d0 33 c0 75 33 09 40
       0.056199007 -1.6388676 -2.8095937 2.1437657
000390 36 aa f2 be 1d e3 9f 3b be d9 48 3c d3 e2 92 bc
       -0.47395486 0.004879369 0.012258945 -0.017930424
0003a0 2c 92 0d bc cb d5 e7 bb 17 25 d2 3c 2e a7 7f 3f
       -0.008640807 -0.0070750467 0.025652451 0.9986447
0003b0 22 d3 e7 3f 7f 1c 19 c0 5e 14 dd 3c 54 98 71 bd
       1.8111308 -2.3923643 0.02698725 -0.058983162
0003c0 b3 ff ec b9 7d e7 96 be b0 5d f2 3f 7e 0a 1c 40
       -0.00045203938 -0.29473487 1.8934841 2.4381404
0003d0 38 1e 26 40 f6 59 5b be 45 64 80 bc 35 c3 ee bc
       2.5955944 -0.21421036 -0.015672812 -0.029145816
0003e0 75 76 f5 bc 7d ac 22 3c 07 32 ed bb 1a ff aa ba
       -0.029963711 0.00992882 -0.0072386297 -0.0013045997
0003f0 70 c5 09 bf e7 fe a4 bd f4 59 07 be 49 fd 91 3d
       -0.5381689 -0.08056431 -0.13217908 0.071283884

net.0.bias f4 [64]
000000 83 80 df bf b4 3c 8a be 3b c9 15 bf d5 d7 03 3d
       -1.7461094 -0.26999438 -0.5851018 0.032188255
000010 d6 fc e9 3e 26 04 4b c0 6b 2f 4d 3f d8 1d 34 bf
       0.4570071 -3.1721282 0.8015048 -0.7035804
000020 33 04 a0 bf e1 8e 40 be 20 de b1 3f 85 40 9d bf
       -1.2501281 -0.18804504 1.3895912 -1.2285315
000030 e3 01 1a c0 97 89 b4 3f f5 fe da be 9d c9 35 bf
       -2.4063652 1.4104489 -0.42772642 -0.7101076
000040 91 40 bb 3e c8 5a fa bd 8d 45 03 c0 fd 90 00 c0
       0.36572698 -0.122243464 -2.05112 -2.0088494
000050 ce 1d 3d bf f2 64 a9 3f 51 c2 5e 3e 1d ae 7f bf
       -0.73873603 1.3233931 0.21753813 -0.9987505
000060 d9 70 1b c0 6e ce e6 be 21 0a bb 3f 7a d9 02 40
       -2.4287627 -0.45079368 1.4612466 2.0445237
000070 99 49 11 bc 8d bc 4f 3f ca 09 da be 4f 1b a0 bf
       -0.008867645 0.8114708 -0.42585593 -1.2508334
000080 f1 8b 04 3f d9 5c 85 bf 09 35 61 bf de 2a 35 3f
       0.51776034 -1.041896 -0.8797155 0.70768535
000090 b8 52 2c bd 86 fc 40 be 2e f0 a1 3f 10 7f 3f 3e
       -0.042071074 -0.1884633 1.2651422 0.18700814
0000a0 94 38 8b bf 4b 8a 89 bf 28 3a 1c c0 a2 09 86 be
       -1.0876641 -1.0745329 -2.4410496 -0.26179224
0000b0 59 9b 77 be ce a9 c4 3f ba c3 0a 3f 37 cc bd 3e
       -0.24180354 1.536432 0.54204905 0.37069866
0000c0 97 81 78 3e ab ee d3 bf 06 83 51 bf a9 81 0f 3f
       0.24268185 -1.6557211 -0.8184055 0.5605722
0000d0 66 f4 70 bf 07 b1 e6 3f 61 b3 91 3f b9 10 11 c0
       -0.9412292 1.8022774 1.1382867 -2.2666457
0000e0 4e 6a 64 3e 51 7c 41 3d 28 50 03 3d fa df 52 3d
       0.22306177 0.047237698 0.032058865 0.051483132
0000f0 d4 45 fd 3e f0 d7 23 c0 48 28 e3 3e 2a 92 06 3f
       0.49467337 -2.5600548 0.4436667 0.5256678

net.2.weight f4 [64, 64]
000000 d4 c4 13 3f 92 dc 37 bf bc c3 85 be 03 a5 32 3f
       0.5772221 -0.7182094 -0.26125896 0.6978304
000010 06 13 3d be e8 c3 69 3d 50 f1 0a 3f 97 8d 77 3e
       -0.18464288 0.057071596 0.54274464 0.24175106
000020 54 de f2 bd ae 6f 1d 3e 0a 07 8b 3f 74 04 c0 be
       -0.11858812 0.15374634 1.0861523 -0.37503397
000030 f4 b2 ce 3f 7d 78 50 3f cc 42 04 3f 10 25 bc be
       1.6148362 0.8143385 0.51664424 -0.36747026
000040 8d 76 97 be 3b 30 8b 3e 12 d8 49 be f0 28 8a 3f
       -0.29582635 0.27185234 -0.1971133 1.0793743
000050 47 c6 71 3e c4 33 44 bf ac f9 d4 be 42 64 02 be
       0.23610793 -0.7664149 -0.41596735 -0.12733558
000060 76 a1 a1 bf 47 da 1e bf 73 48 84 3f 76 75 8f 3f
       -1.2627399 -0.62051815 1.033461 1.1207721
000070 66 53 6c be cc 87 2d 3f 02 77 26 3d bd 85 5a bf
       -0.23078689 0.67785335 0.04064084 -0.8536032
000080 83 64 7c bf 83 e2 2b bf 02 cd 1e bf ff bc 84 bd
       -0.9859087 -0.67142504 -0.6203157 -0.06481361
000090 67 ea 48 bf e5 0d d2 3e ff d9 2d bf 63 9a 9e bd
       -0.7848267 0.41026226 -0.6791076 -0.07744291
0000a0 32 81 f5 be 97 8f 4b bd 3a 0e 44 bf 99 58 a8 3d
       -0.4795013 -0.049697485 -0.7658421 0.08220024
0000b0 62 f6 8c 3b c0 3b 75 3e 4a a9 db 3d e2 88 54 3d
       0.004301832 0.23948574 0.10725649 0.051888354
0000c0 9e 04 05 3f 22 d8 fa 3d f7 f4 38 bd fd 21 ba bf
       0.5196017 0.12248255 -0.04515549 -1.4541622
0000d0 78 63 82 be c4 2c 14 3f 59 7e f3 3e db 3f 90 3b
       -0.25466514 0.57880807 0.47557333 0.0044021434
0000e0 f2 2d 0a 3f ef 69 42 3f f3 64 7f 3e be 81 e6 bd
       0.53976357 0.7594289 0.24940853 -0.11255215
0000f0 89 0a 10 3e 34 f5 35 3f c2 44 c7 3e 84 57 62 3f
       0.14066519 0.71077275 0.38919646 0.8841479
000100 2c e9 0e 3f bb d7 8d be 78 4c 37 3f db d6 af be
       0.5582454 -0.27703652 0.7160106 -0.3434361
000110 35 9c 23 bf 27 de 58 40 11 01 ee be 54 1c 5e 3e
       -0.6391023 3.388559 -0.4648519 0.21690494
000120 97 63 85 3f 4d 8d 0c 3d ff fb 18 be 0f f2 01 bf
       1.0421017 0.034314442 -0.14939879 -0.5075998
000130 dc 3a 39 be 7d 9d 99 3e 92 22 90 3e 2a d8 c2 3e
       -0.1808886 0.30002967 0.28151375 0.38055545
000140 e5 a8 1e bf bf 6b a5 be 8a 77 5d 3f 54 b1 3c bf
       -0.6197646 -0.32308766 0.8651053 -0.7370808
000150 ac 3a 96 bd 34 9d 13 bf e3 be 6a bf f7 78 42 3f
       -0.073354095 -0.5766175 -0.9169752 0.7596583
000160 ad 4d 9d be 8b c8 d6 3e 05 90 16 bf 2d 1b 01 c0
       -0.30723324 0.41949877 -0.58813506 -2.0172837
000170 59 f3 82 bf ef aa 63 bd ab 8e d7 3b a2 ac 1f 3f
       -1.0230514 -0.055582937 0.0065782866 0.6237279
000180 62 25 0a 3e f7 ef 3d be 08 e5 66 bf 76 1f 3e bf
       0.13490823 -0.1854857 -0.90193224 -0.74266756
000190 a4 ba 98 be dc 6b 6e 3f 7f d4 2e c0 78 56 c5 3e
       -0.29829895 0.9313333 -2.7317197 0.38542533
0001a0 fd 94 98 3e b2 e8 d8 3e cd d5 96 bf b0 16 8a be
       0.2980117 0.42365032 -1.1783997 -0.26970434
0001b0 36 6a 81 3e 25 0d 60 bf b0 4f 5e bf b4 49 a2 be
       0.25276345 -0.87520057 -0.86840343 -0.31696856
0001c0 88 43 93 3d bb 73 b2 be 09 be 47 3e 12 dd 10 c0
       0.07190615 -0.3485392 0.19506086 -2.263493
0001d0 de 46 2a 3f c1 da a8 3e e7 84 62 be 1d 92 c8 3e
       0.66514385 0.32979396 -0.2212101 0.39173976
0001e0 7b 9c 61 bf 0a 89 7a 3d f2 87 0a 3f 61 21 ca be
       -0.88129395 0.061165847 0.54113686 -0.3947859
0001f0 16 c2 c1 3d c2 9c 21 3f cf fa 92 bf 43 13 ed be
       0.09460847 0.6312982 -1.1482791 -0.46303758
000200 02 bf 7f 3f 8b 44 36 3f bd fc d3 3e 4a 41 1e 3f
       0.9990083 0.7119834 0.41403762 0.61818373
000210 bd 9b 84 3b 6e 60 54 3f d9 34 8a be 21 01 61 3f
       0.0040468858 0.8295964 -0.26993445 0.8789235
000220 11 c5 6d bf da b2 8a 3c d6 92 2c be 44 a8 a4 3f
       -0.92878824 0.016930986 -0.16852888 1.286385
000230 09 17 11 bf bf 0f 3c bf da 17 c4 be 73 52 af bf
       -0.56675774 -0.73461527 -0.38299447 -1.3697037
000240 a5 55 af 3e b7 fe 81 3d 8a e8 c9 3e 9f d0 d0 3e
       0.3424503 0.06347411 0.39435226 0.40784165
000250 d1 6d 0d 3f fd cc 8d be e3 84 14 3f 0b 07 32 bf
       0.5524569 -0.27695456 0.5801527 -0.69541997
000260 4f c5 38 3f d8 34 02 3f 6e db 73 bf 78 af 98 bf
       0.7217607 0.50861883 -0.952567 -1.1928549
000270 53 60 48 3e 24 2b 0e 3f 97 61 32 be 33 e2 24 bf
       0.19567995 0.5553458 -0.1742004 -0.6440765
000280 44 72 12 be db d0 3e be b4 f3 31 3f ac b9 d9 3d
       -0.14301401 -0.1863436 0.69512486 0.10631117
000290 f1 7b 58 3f 78 3e 71 3f 3a 71 09 c0 03 e9 f9 3e
       0.8456412 0.94235945 -2.1475358 0.48810586
0002a0 5d e1 14 3f 40 4f 2b bd 1c 93 35 be 62 b9 a9 be
       0.5815638 -0.041823626 -0.17731899 -0.33149248
0002b0 80 51 96 3e 2b de 2e bf 29 13 75 be 78 ea d7 be
       0.29359055 -0.6830775 -0.2393309 -0.42171073
0002c0 8d d5 8c bf 18 30 b6 be ad bb 1a bd 73 8f a7 bf
       -1.100267 -0.35583568 -0.037776638 -1.3090652
0002d0 81 79 5d 3e 31 c4 96 bf 2e 50 92 be 7b da e0 3f
       0.21628381 -1.1778623 -0.28576797 1.7566675
0002e0 e9 e2 d7 be d3 9d 71 be df e4 96 3e d0 d5 9e 3f
       -0.42165306 -0.23595361 0.2947149 1.2409
0002f0 d3 0f a0 bf 30 a9 cc 3e ff dc 43 bf 06 96 6d bf
       -1.2504829 0.3997283 -0.7650909 -0.9280704
000300 ec e3 ef bd cb cf b9 be 64 3f 6b 3e ac 89 b6 be
       -0.117133945 -0.36291346 0.229734 -0.3565191
000310 4d 73 f3 3e 6e a0 64 3e 72 54 c8 bd a3 61 96 be
       0.47548905 0.22326824 -0.09781732 -0.29371366
000320 4d 82 92 3d 4a 60 d0 be 23 25 78 be f7 84 f7 bd
       0.07153759 -0.40698463 -0.24232917 -0.12085908
000330 19 5f 94 bf 1e a6 19 ba 79 31 f9 3e e2 2d b2 3c
       -1.1591522 -0.000586124 0.48670557 0.021750394
000340 8a ab 6b bf 56 21 90 3e 67 2e f2 be ab 03 86 bf
       -0.9205862 0.28150433 -0.47301027 -1.0469869
000350 7f 0a 3a 3e 1b b0 47 bf 8c ad b7 bf ef a9 6d be
       0.18168066 -0.7800309 -1.4349837 -0.23209356
000360 d6 4e 28 3f 02 b2 fe 3e 70 86 66 3e 25 a0 45 bf
       0.65745294 0.49745184 0.22512221 -0.77197486
000370 d7 8b 95 bf 25 6a 65 bc 24 dc 55 3d c6 57 ce be
       -1.1683301 -0.014002358 0.052211896 -0.4030134
000380 a6 55 82 3d c8 d0 7b 3f 8d f8 49 be 68 f4 4c c0
       0.063639924 0.9836545 -0.19723721 -3.2024174
000390 0d 4f d9 be 18 45 a7 be 45 3b 2d c0 52 39 9e bd
       -0.42443123 -0.32669902 -2.7067425 -0.07725777
0003a0 72 8e 5d bf a5 8f 0d bd 9f ef b5 be 73 df 86 bf
       -0.8654548 -0.03456082 -0.3553438 -1.0536941
0003b0 a3 10 84 3e 5d 27 cc 3e 2b 67 91 be 1b 18 b7 bf
       0.25793943 0.39873782 -0.28399023 -1.4304231
0003c0 77 e8 9a be 8c fa 1b 3f 13 38 33 bf 6b 88 36 be
       -0.30255482 0.6092918 -0.7000744 -0.17825477
0003d0 65 b9 68 be d7 15 9b bd 27 e9 2f bf 1a cf df be
       -0.22726972 -0.07572525 -0.6871514 -0.43712693
0003e0 04 30 42 bd b8 fe 04 3d bd 6f 32 bd 02 eb 28 be
       -0.047409073 0.03246948 -0.043563593 -0.16495898
0003f0 be c8 b5 3e 7d de 97 3f 16 ec c7 3c e7 7a e8 be
       0.35504717 1.1864773 0.024404567 -0.45406267

net.2.bias f4 [64]
000000 57 1f af be ae b8 5d c0 8f 51 19 c0 e2 59 94 be
       -0.34203598 -3.464397 -2.395603 -0.28974825
000010 4c 10 e2 bf f1 3e fa be ac b9 06 be da f3 d8 bf
       -1.7661223 -0.48876145 -0.13156766 -1.6949418
000020 b9 07 23 bf 65 1d 35 bf a5 3f 07 3e 27 79 31 c0
       -0.6368366 -0.7074798 0.13207872 -2.7730196
000030 b4 f1 51 bf 5f 01 4a bf 5c d6 50 bf a5 4b 35 c0
       -0.82009435 -0.7890834 -0.81577086 -2.832742
000040 02 9c b0 bf 7e 39 3c bf d1 36 cb bf 54 d3 79 bf
       -1.379761 -0.73525226 -1.5876104 -0.97588086
000050 4f 4a 1a c0 fd 38 34 bf 6b 63 0f c0 9a 42 ff be
       -2.4107854 -0.7039946 -2.240443 -0.498555
000060 6a 02 c8 be 40 0c d0 bf e7 0b 85 bf d3 d9 c1 3d
       -0.39064342 -1.6253738 -1.0394257 0.09465375
000070 14 93 ef bf 0f a7 37 c0 99 9f 86 c0 1d 3b fa be
       -1.871676 -2.8695714 -4.206982 -0.48873225
000080 fa 1f 81 bf b1 44 02 3f 99 a2 77 bf f4 2d 16 c0
       -1.0087883 0.50886065 -0.9673248 -2.3465548
000090 df 7e 02 bf 9a 2d 18 3f 81 2a 5f bf 74 34 15 c0
       -0.5097484 0.5944458 -0.8717423 -2.3313265
0000a0 24 ea 18 c0 42 02 08 bf 37 0f 49 c0 f9 aa 95 be
       -2.3892908 -0.53128445 -3.1415536 -0.29232004
0000b0 15 e2 0d be cc 0f 30 bf c6 87 c5 bf e8 fe 88 bf
       -0.13855775 -0.68774104 -1.543206 -1.0702791
0000c0 d2 a8 dc bf 65 db 06 bf 1e b8 4a bf 34 e8 a0 bf
       -1.723902 -0.5267852 -0.7918719 -1.2570863
0000d0 81 70 15 c0 2d 45 f2 bf 45 c3 ad bf ba b5 1f c0
       -2.3349917 -1.8927361 -1.3575217 -2.4954667
0000e0 27 73 4f bf 00 72 6e be bb 04 2c 3f 78 4a 84 bf
       -0.81035084 -0.23285675 0.6719472 -1.0335226
0000f0 ea 4d 35 c0 1c 62 57 bf e7 71 ac be d0 d9 f1 3d
       -2.8328805 -0.8413408 -0.3368065 0.118091226
